models/Mnist-alpha0.1-ratio0.5/server.pt (torch, 114095 bytes, 16 tensors)

weight f4 [6, 1, 3, 3]
000000 63 e0 2f 3e 38 a8 16 be c0 57 84 bd 16 36 20 3e
       0.1717544 -0.14712608 -0.064620495 0.15645632
000010 02 ac a0 be 18 b4 4c 3e 1b 71 8c bd b8 a6 2d 3e
       -0.31381232 0.19990575 -0.06857511 0.1695813
000020 f6 cd 3d 3d 56 2d 27 bd 56 58 bd 3d 6b b5 86 3c
       0.046338998 -0.04081472 0.09245364 0.016443929
000030 40 54 f9 3d 98 04 05 be eb 16 c7 bc ab d5 f5 bc
       0.121742725 -0.12990034 -0.02430292 -0.030009111
000040 96 e5 45 3d 56 89 ae ba ee 30 95 3e 6b 70 d4 3d
       0.048314653 -0.0013316076 0.29138893 0.103730045
000050 b6 3a fe bd f3 26 4e be eb d9 64 bd 20 3b 13 be
       -0.12413542 -0.20132045 -0.055871885 -0.14378023
000060 70 c2 da bd ab bf 82 3c 70 7a 4b 3e f6 86 39 3e
       -0.10681617 0.015960535 0.19870925 0.1811789
000070 da d5 a6 be 7b 99 53 3e 60 b6 be 3d 06 e3 a1 3e
       -0.3258503 0.20664017 0.09312129 0.31618518
000080 e8 4c 61 3e 37 80 9b be 74 45 a2 be d3 a2 24 be
       0.22001994 -0.30371258 -0.31693614 -0.16077738
000090 4a dd 95 3e 16 6c 63 bd ab 13 12 3e 1b 9f 1e be
       0.29270393 -0.055523 0.14265315 -0.15490381
0000a0 12 76 a7 3e e8 6a 10 be 6e f9 7f 3e ab 57 81 3b
       0.32707268 -0.14103281 0.24997494 0.0039472184
0000b0 03 d2 33 be 4e 73 2f 3e c6 2f 35 be 86 c6 c8 3d
       -0.17560582 0.17133829 -0.17694005 0.0980349
0000c0 fb 1f c5 bd 00 b0 15 bd b0 13 a4 be d3 bd 22 be
       -0.096252404 -0.0365448 -0.3204627 -0.15892725
0000d0 16 38 39 3e d6 f0 a5 bd
       0.18087801 -0.081025764

bias f4 [6]
000000 12 fe a9 3e ef cd 88 3e 2b b8 7f bc 90 d5 63 be
       0.33201653 0.26719615 -0.015607874 -0.22249436
000010 ee db 4f 3e d6 de d3 3d
       0.2029874 0.10345237

weight f4 [6]
000000 00 00 80 3f 00 00 80 3f 00 00 80 3f 00 00 80 3f
       1.0 1.0 1.0 1.0
000010 00 00 80 3f 00 00 80 3f
       1.0 1.0

bias f4 [6]
000000 00 00 00 00 00 00 00 00 00 00 00 00 00 00 00 00
       0.0 0.0 0.0 0.0
000010 00 00 00 00 00 00 00 00
       0.0 0.0

running_mean f4 [6]
000000 00 00 00 00 00 00 00 00 00 00 00 00 00 00 00 00
       0.0 0.0 0.0 0.0
000010 00 00 00 00 00 00 00 00
       0.0 0.0

running_var f4 [6]
000000 00 00 80 3f 00 00 80 3f 00 00 80 3f 00 00 80 3f
       1.0 1.0 1.0 1.0
000010 00 00 80 3f 00 00 80 3f
       1.0 1.0

weight f4 [16, 6, 3, 3]
000000 d4 27 b4 bd c6 06 b5 3d a0 32 a9 3d e8 2c f7 3d
       -0.08796659 0.088391826 0.08261609 0.12069112
000010 01 3a 9c bd 48 80 b7 bc b7 c3 2c bb cc d2 a2 3c
       -0.07628251 -0.022400036 -0.0026361772 0.019875906
000020 36 82 d3 bd 1e c5 c5 bd db 9c 97 3d 63 b4 02 bd
       -0.1032757 -0.09656738 0.07402965 -0.03191031
000030 e6 22 88 3d 68 37 fe 3b 8c 04 37 3d 35 21 f5 3c
       0.06647281 0.00775807 0.04468207 0.02992306
000040 23 ab 4a 3d 42 27 8a 3d 75 0d 01 be 65 48 8c 3d
       0.049479615 0.06745769 -0.1260279 0.06849746
000050 6d f5 c3 bd 9f 47 d2 bd 2d 97 07 3c dd f7 bd bc
       -0.09568296 -0.10267567 0.008275789 -0.02318948
000060 8d af a3 3d 57 67 a1 bd ce c1 f7 bd cd d3 ca 3d
       0.07992468 -0.07881039 -0.12097512 0.09903679
000070 97 4d a5 bc 63 c1 9c 3d a3 31 33 3d 07 fd d0 bd
       -0.0201786 0.07654073 0.04374851 -0.10204511
000080 9c f5 df 3c 67 e2 05 3d b5 9a ba bd f7 3b 84 bd
       0.027338795 0.032686617 -0.09111539 -0.0645675
000090 e1 0e 3e 3d 1e af c7 3c bf 19 6d bd 7a bb 28 bd
       0.04640091 0.024375495 -0.05788588 -0.041194417
0000a0 15 41 ff 3d 88 42 ce bc 98 20 9d 3d 94 5a 71 3d
       0.12463585 -0.025178209 0.076722324 0.058924273
0000b0 ed 26 b4 bd 39 03 ed bd 61 c2 05 3e ca d7 e8 3b
       -0.08796487 -0.1157288 0.13062431 0.007105802
0000c0 14 09 bf 3d fe 04 e7 3c 5a 45 33 3d ee 2c d0 3d
       0.093279034 0.028200623 0.04376731 0.1016482
0000d0 ee 21 04 3e 39 f0 b8 bd 8c 61 8b 3c e5 fa cf 3d
       0.12903568 -0.09030194 0.017014287 0.10155276
0000e0 f4 e5 c9 3d 3b 23 ad 3d db b2 c9 bd f6 b0 c8 bd
       0.09858313 0.08453985 -0.09848567 -0.097993776
0000f0 60 8c a8 bd 9b 0c 8c 3c 4e e2 0a 3e e2 0b b0 bd
       -0.082298994 0.017095855 0.13562891 -0.085960165
000100 38 83 94 3d 7a 41 9a bd 94 04 03 be e6 ef ec bc
       0.072515905 -0.0753202 -0.12794715 -0.028922986
000110 d1 93 a0 3d 2e 5e 01 3e fc 14 ad bd 04 ec f1 3c
       0.07840694 0.12633583 -0.08451268 0.029531486
000120 1c 7a f0 3d 0e ae b8 3d d3 b0 ad 3d 31 0d c6 3d
       0.117420405 0.09017573 0.08480992 0.09670485
000130 df 47 b0 3d 1e f9 0f 3d 37 94 be bd e2 09 ea bd
       0.08607458 0.035149686 -0.093056135 -0.11427666
000140 ee 68 7f bd 0f d0 81 bc 09 d4 aa bd ce ec 4b 3d
       -0.062355928 -0.01584628 -0.08341224 0.04978638
000150 c9 81 2c 3d 86 6d fc bc c9 3a 56 3d 3d 24 34 3d
       0.04211596 -0.030813944 0.052302156 0.043979872
000160 db 27 aa 3d e4 af bb 3d 6b c3 3c bd b6 25 08 3e
       0.08308383 0.09164408 -0.046084803 0.13295636
000170 dc e0 80 bc eb 32 99 bb 4d 87 03 be ce 5f b3 bd
       -0.015732221 -0.0046752593 -0.12844582 -0.08758508
000180 e9 d0 a2 bd 1f 69 6e bd 3c 25 c6 3d 68 25 36 bd
       -0.07950003 -0.05820572 0.09675071 -0.044469267
000190 f2 43 d0 bd 2a 75 56 3d ff 75 32 3d 80 82 b4 3d
       -0.101692095 0.05235783 0.04356956 0.088139534
0001a0 dc 37 90 bd 05 b4 f1 3c 86 eb 4a bd 12 77 fa bc
       -0.07041904 0.029504785 -0.04954102 -0.030574355
0001b0 63 19 de bd f4 09 7e bd df b4 2a bd 9e 5c 6e 3d
       -0.10844686 -0.06202121 -0.0416764 0.058193795
0001c0 0d a9 cb 3c 8c af 09 3d b0 15 0b 3e 29 d0 07 3e
       0.024860883 0.03361468 0.13582492 0.13263
0001d0 b8 15 be 3d d6 fe 8d 3b f0 cc c0 bd 07 ce d9 3d
       0.09281486 0.0043333573 -0.09414089 0.10635
0001e0 55 62 0b bd 4e 40 34 bc fd 18 f0 bd f2 33 dc bc
       -0.034029324 -0.01100166 -0.11723516 -0.026880238
0001f0 aa c1 b3 bd 64 0c 00 3e 9a f0 f0 bd 6a 3d d9 bd
       -0.08777173 0.12504727 -0.11764641 -0.10607417
000200 a2 6a 97 bb 30 b2 96 bd 45 71 47 3d 3d 8e 56 bd
       -0.004620866 -0.07358205 0.048692007 -0.052381743
000210 98 e6 82 bd 6c 8e fc 3b a1 bf c9 3d de 0a c4 bd
       -0.063916385 0.0077074077 0.098510034 -0.09572385
000220 cb e0 82 3d fc 0b b3 3d 81 4f 08 3e aa 11 c3 bd
       0.06390532 0.0874252 0.13311578 -0.095248535
000230 d5 fe 06 3d 90 13 ce bd 25 f0 ed 3d 90 37 58 bd
       0.03295787 -0.10062325 0.116180696 -0.052787364
000240 cc df a7 3d 72 c1 84 3b 46 a5 2d bc 30 48 8e bb
       0.08196983 0.004051381 -0.010598486 -0.0043421015
000250 16 82 bd 3c 7e 60 83 3d 37 ca b2 3c 3d 09 2a 3d
       0.023133319 0.06414889 0.02182494 0.041512717
000260 ff b1 fa bd a4 0a cb 3d 7f fc f2 3d 7b 5f e6 3d
       -0.12240981 0.09914139 0.11864566 0.1124868
000270 ff 04 ce 3d ec 1d c9 bd 57 a0 4e bd 12 bc f5 3d
       0.10059547 -0.0982016 -0.05044588 0.11998762
000280 b8 45 d4 bd 1d d7 fc 3d ca 31 db bd 21 51 c4 bd
       -0.1036486 0.12345717 -0.10702856 -0.095857866
000290 c4 3f 88 3d b9 3d c8 bd 31 66 ff bc 0b c0 ca 3d
       0.06652787 -0.09777398 -0.031176658 0.098999105
0002a0 d1 c0 dc 3d 36 ca 03 3e da 35 e2 bc e3 9e d8 bd
       0.10778964 0.12870106 -0.027613569 -0.1057718
0002b0 4d 34 09 3e bd 7a ed bc f7 54 65 bd d9 e0 07 3d
       0.13398857 -0.02898919 -0.055989232 0.033173416
0002c0 66 e6 c2 bd af 2e b7 3d 39 ab ae 3d 29 24 dd bd
       -0.09516601 0.08944451 0.08528752 -0.107979126
0002d0 19 ea e4 bd a0 4d 43 bc bf 1e 6a 3d 95 25 81 bb
       -0.11177463 -0.011920363 0.057158228 -0.0039412477
0002e0 3e 52 8d bd ff e4 4b 3b 77 fa 02 be f8 f8 c4 bd
       -0.06900452 0.0031111834 -0.12790857 -0.096177995
0002f0 a6 86 b9 bd 0f 84 e5 3d 69 ac f5 3d 1b 54 3d bd
       -0.09058885 0.11206829 0.11995775 -0.046222787
000300 b1 fe c7 3b fc 95 78 3d 3b 92 85 3c f9 8e 8b bd
       0.0061033596 0.06068991 0.01630508 -0.06814379
000310 4d bc a0 3d 2c 53 ab 3d 68 37 01 bc c6 3b 89 bc
       0.078484155 0.08365473 -0.007886745 -0.016752135
000320 d8 43 fd 3d 16 9e f3 3d f2 03 9e bd 4c 56 08 3e
       0.12366456 0.11895387 -0.07715596 0.1331417
000330 a1 f0 09 3d bb 20 b9 bd 00 90 98 3d 87 11 d0 bd
       0.033676747 -0.09039446 0.07449341 -0.10159593
000340 91 bf 00 3e 37 2b b3 bd 9b a5 1d 3d 17 ba 29 3d
       0.12573077 -0.08748477 0.03848801 0.041437235
000350 b1 94 04 3d 6d 28 e7 3d 84 83 67 bd cc 50 6b bd
       0.032368366 0.112870075 -0.056521907 -0.0574501
000360 e4 82 f1 bd ac 00 b7 bb 55 06 84 bd d2 ac b2 3b
       -0.117925435 -0.005584797 -0.0644652 0.0054527307
000370 c0 87 e4 bc ad f0 38 3d 38 18 f1 3d a0 79 24 3d
       -0.027896762 0.0451514 0.117721975 0.040155053
000380 32 8f 33 bd 7d c1 88 bd 1f 11 f3 bd 58 82 ea 3d
       -0.043837734 -0.0667753 -0.118685 0.11450642
000390 9c 2f d3 bc a9 06 e1 3c 07 f3 a4 3b d1 9a b1 bd
       -0.025779538 0.027468996 0.005033854 -0.08672107
0003a0 0f f5 9c 3d f3 2f 9c 3d 2a 90 e0 3b 76 61 9e bd
       0.07663929 0.07626333 0.006853123 -0.07733433
0003b0 41 d7 6c bd 20 a1 f5 3a f2 3a 9f bd 67 80 9b bd
       -0.05782247 0.0018740036 -0.07774915 -0.0759285
0003c0 3a 4a a6 bc 8b 80 20 bd 6b d4 08 3d 40 82 12 bd
       -0.020299066 -0.039185088 0.033405703 -0.035768747
0003d0 b1 c7 93 bc 56 bf 54 bd cf b0 fe bd 42 0f f3 3d
       -0.018039556 -0.051940285 -0.12436067 0.118681446
0003e0 a6 ae d4 3c d9 37 f9 3d 27 a9 b3 bc 9e 14 0c bd
       0.025962185 0.12168855 -0.021931244 -0.03419935
0003f0 ac 00 03 be d5 97 53 bd 13 c3 b6 3d 0a 7c 08 be
       -0.12793225 -0.05165847 0.08923926 -0.13328567

bias f4 [16]
000000 75 cb af 3c bb ce 01 be dd 89 32 3d 80 dd b0 3d
       0.02145932 -0.12676518 0.043588508 0.08635998
000010 51 46 50 3d 4c 7e e3 3d 7e 5f 38 3b f3 35 e7 bd
       0.05084831 0.111080736 0.002813309 -0.11289587
000020 4e d8 a1 b9 40 92 ca 3d 9b 0c 86 bd 05 bf 6d 3d
       -0.00030869473 0.09891176 -0.06545373 0.0580435
000030 c9 7c 00 3d 11 e0 b4 bc af 85 7d 3a da 24 6d 3d
       0.031369004 -0.0220795 0.00096711045 0.057896473

weight f4 [16]
000000 00 00 80 3f 00 00 80 3f 00 00 80 3f 00 00 80 3f
       1.0 1.0 1.0 1.0
000010 00 00 80 3f 00 00 80 3f 00 00 80 3f 00 00 80 3f
       1.0 1.0 1.0 1.0
000020 00 00 80 3f 00 00 80 3f 00 00 80 3f 00 00 80 3f
       1.0 1.0 1.0 1.0
000030 00 00 80 3f 00 00 80 3f 00 00 80 3f 00 00 80 3f
       1.0 1.0 1.0 1.0

bias f4 [16]
000000 00 00 00 00 00 00 00 00 00 00 00 00 00 00 00 00
       0.0 0.0 0.0 0.0
000010 00 00 00 00 00 00 00 00 00 00 00 00 00 00 00 00
       0.0 0.0 0.0 0.0
000020 00 00 00 00 00 00 00 00 00 00 00 00 00 00 00 00
       0.0 0.0 0.0 0.0
000030 00 00 00 00 00 00 00 00 00 00 00 00 00 00 00 00
       0.0 0.0 0.0 0.0

running_mean f4 [16]
000000 00 00 00 00 00 00 00 00 00 00 00 00 00 00 00 00
       0.0 0.0 0.0 0.0
000010 00 00 00 00 00 00 00 00 00 00 00 00 00 00 00 00
       0.0 0.0 0.0 0.0
000020 00 00 00 00 00 00 00 00 00 00 00 00 00 00 00 00
       0.0 0.0 0.0 0.0
000030 00 00 00 00 00 00 00 00 00 00 00 00 00 00 00 00
       0.0 0.0 0.0 0.0

running_var f4 [16]
000000 00 00 80 3f 00 00 80 3f 00 00 80 3f 00 00 80 3f
       1.0 1.0 1.0 1.0
000010 00 00 80 3f 00 00 80 3f 00 00 80 3f 00 00 80 3f
       1.0 1.0 1.0 1.0
000020 00 00 80 3f 00 00 80 3f 00 00 80 3f 00 00 80 3f
       1.0 1.0 1.0 1.0
000030 00 00 80 3f 00 00 80 3f 00 00 80 3f 00 00 80 3f
       1.0 1.0 1.0 1.0

weight f4 [32, 784]
000000 81 35 c8 bc 55 b9 b8 3c 3a 12 c6 3c d0 2c a4 3c
       -0.024439575 0.02254931 0.024178613 0.0200409
000010 ec 2d 12 3d b7 68 cc ba 97 98 ce bc 93 c0 d5 3a
       0.035688326 -0.0015595172 -0.025219245 0.0016308002
000020 77 c3 29 bc f3 8f 4e 3c b8 7b f7 3c 5a 22 a0 bc
       -0.010361544 0.012607562 0.03021036 -0.01954763
000030 6e 06 c4 3a 65 48 0e 3d 18 8f e9 bc c1 f2 c9 bb
       0.001495553 0.03473701 -0.028510615 -0.0061629717
000040 55 0d 0e 3d 3a 6e cc 3c 05 d5 29 3c 6e 5f 7c bc
       0.034680683 0.024954904 0.010365729 -0.015403612
000050 6e 2f 5a bb 92 2d 03 bd 30 b9 09 bd 67 0f 09 bd
       -0.003329243 -0.03202588 -0.033623874 -0.033461954
000060 dd 80 0c 3d 51 67 e7 3c fc 1b 68 3c 05 f9 12 bc
       0.03430258 0.028247507 0.014166828 -0.008970504
000070 d1 e6 fb 3c c5 8f 1a bc 91 1c cb 3c 00 5b 98 ba
       0.03074971 -0.009433691 0.024793895 -0.00116238
000080 e5 a0 89 bc bc 4f 23 bc 8a e3 f9 bb 90 e6 05 bd
       -0.016800353 -0.009967741 -0.0076260017 -0.032690585
000090 21 fb 2e 3c 0e 48 32 bc 07 6b 86 3c 01 8a ba 3c
       0.010679991 -0.010881437 0.016408456 0.022770884
0000a0 37 10 ba bb 2a e4 8d 3c 6e d1 e9 3b 61 7b c4 3c
       -0.0056782025 0.017320711 0.0071355617 0.023984613
0000b0 8e ae bc bc dc 7d 4d bb b3 fc 42 bc 25 2e 00 3d
       -0.023032453 -0.0031355536 -0.0119010685 0.031294007
0000c0 12 4e 03 bd 53 72 a4 bc 13 1d 84 3b f2 dc 01 3d
       -0.032056876 -0.020074045 0.004031786 0.03170485
0000d0 f1 f4 c5 3c 57 e3 08 bd 5c b2 cd bc 0a d7 0d 3d
       0.024164649 -0.033419933 -0.025109462 0.034628905
0000e0 6e 8d aa 3b e1 96 fa bc 77 59 38 bc e5 d0 7f 3c
       0.005204848 -0.030589523 -0.011251799 0.015613769
0000f0 25 b7 f4 bb 85 bb e0 bc 65 a3 b4 bc ec 8f 97 bc
       -0.0074681216 -0.027433166 -0.022050569 -0.018501244
000100 01 5c b7 ba 01 50 65 3c ce 78 8c 3c f5 20 8e bc
       -0.0013989211 0.013996125 0.017147448 -0.0173497
000110 9c 5b c4 bb ea e3 e1 bc 55 41 dd 3c 87 fc 11 3d
       -0.005992366 -0.027574498 0.027008692 0.03564122
000120 94 2f 0e 3d 21 22 6f 3c 5c 8c f9 bb 25 63 69 ba
       0.034713343 0.014595539 -0.007615609 -0.00089030183
000130 33 1c 53 3c 83 9a fd bc 80 4b 11 3b 71 d1 ed bc
       0.012885141 -0.030957466 0.0022170246 -0.029030534
000140 ad 42 12 bd dc 75 9c ba ea 47 3a bc 17 55 b9 bc
       -0.03570812 -0.001193698 -0.011369685 -0.022623582
000150 d3 00 c2 3b dc b0 be 3a 13 96 b2 3b a7 bf a3 bc
       0.0059205084 0.0014548558 0.005450019 -0.019988848
000160 02 49 0f bd 01 e6 4c 3a 2e b6 6e bc dc 45 45 bc
       -0.034981735 0.00078162557 -0.014569802 -0.012040582
000170 11 63 d7 3c 01 21 bf 3b 2e 9f 85 3c f7 87 23 bc
       0.026292356 0.005832792 0.016311254 -0.009981147
000180 c5 26 e8 bc dc 59 e9 3b 25 c1 c1 bc 93 00 91 3b
       -0.0283388 0.007121308 -0.023651669 0.0044251173
000190 4e 54 e4 bc 2c 91 dc 3c c1 4d c7 bc 8e ff fd 3c
       -0.02787223 0.026924692 -0.024329068 0.031005647
0001a0 65 ac ce 3c d1 2a dd 3c 31 8e af 3c e0 6f 07 3c
       0.025228688 0.026997956 0.021430107 0.008266419
0001b0 dc 26 e4 ba 6e 71 15 ba 53 b9 68 bc 1f 77 06 bd
       -0.00174066 -0.0005700801 -0.014204341 -0.032828446
0001c0 ef 55 05 3d 93 8a f2 3a 1a 9a 89 3c b7 cf ab 3a
       0.032552656 0.0018504433 0.016797114 0.0013108168
0001d0 57 27 28 3c 23 43 b4 bc 5c 6f e3 bc 9c 20 df 3c
       0.010263286 -0.02200467 -0.027763061 0.027237229
0001e0 45 e5 5d 3c 00 76 90 3c 5d 32 11 bd ca 3d 1e 3b
       0.013543432 0.017634392 -0.03544842 0.0024145716
0001f0 d4 72 08 bd 8a ec 85 bb 25 77 f7 ba 73 d4 cd bc
       -0.033312634 -0.0040870355 -0.0018880112 -0.025125718
000200 16 db 10 bd 4a 7a 76 39 fd 8d 03 3d 18 d6 03 3d
       -0.035365187 0.00023505944 0.032117832 0.032186598
000210 ae 1f b2 bc 25 e4 cf bb 33 a9 f4 bc 1a 7c e4 bc
       -0.021743622 -0.0063443356 -0.029865837 -0.027891207
000220 2e 70 20 bc d5 05 0e 3d ae a7 18 bc ca 6b 07 3b
       -0.009792371 0.03467353 -0.009317322 0.0020663613
000230 d5 9e 09 3d ae 8d d0 3b 51 04 ec 3c 41 69 c2 3c
       0.03359874 0.006364546 0.028810652 0.02373183
000240 78 2c 09 3d 41 b1 c8 3b ec 98 ec bc 3e b0 fb bc
       0.033489674 0.006124646 -0.028881513 -0.030723687
000250 47 2a 97 bc 41 7b f1 3c f0 3c a8 3c ea 41 2b 3c
       -0.018452777 0.029477717 0.02053687 0.010452727
000260 3a cd de bc f1 7a d7 bc b8 b1 ee 3c ca f5 72 bb
       -0.027197469 -0.02630374 0.029137477 -0.0037072771
000270 05 a7 11 bd 4a ac 90 bb 5c 7a 0c bc 93 38 0d 3a
       -0.035559673 -0.0044150697 -0.008574095 0.00053871534
000280 2a e3 74 3c c1 27 61 3c 93 de df bc 4a 3a cd b9
       0.014946738 0.013742388 -0.027327811 -0.00039144076
000290 8a fd 90 bc 53 e7 c5 3c 57 e0 90 3c 4c 96 a0 3c
       -0.017699022 0.024158156 0.017685099 0.019602917
0002a0 a5 fe 04 3d 3a b6 8f 3c a0 2e 12 bd 2a a6 13 3c
       0.03246941 0.017542947 -0.035688996 0.009011785
0002b0 1e c2 c8 bc ee 47 9c 3b 93 24 c8 39 db 16 11 3d
       -0.024506625 0.004769317 0.00038174223 0.035422187
0002c0 33 e4 c7 bc 38 53 0f bd 57 dd 1c bc c1 95 bc 3b
       -0.024400806 -0.034991473 -0.009574256 0.0057551567
0002d0 4c 52 d6 3c a8 37 ed 3c a1 52 e1 3c c1 b6 38 3c
       0.02616229 0.028957203 0.02750522 0.011274041
0002e0 ee 38 27 bc dc 72 f7 bb d7 ff 9f bc 9c d9 e4 3b
       -0.010206444 -0.007551534 -0.019531174 0.006983949
0002f0 51 77 cb bc 01 2d 49 3c 1c f2 bc 3c 3c 44 f8 3c
       -0.024837168 0.012278796 0.023064665 0.030305974
000300 34 30 10 bd c8 0b f0 3c 8e ca b7 bc 81 1b 3f bb
       -0.03520222 0.029302493 -0.022435453 -0.002916068
000310 5b 8a 05 3d c3 8b 9e 3c e5 9b 39 bc 93 b6 ac 3c
       0.03260265 0.019353753 -0.011328672 0.021083152
000320 6a 48 0e bd 05 ba e4 3c 92 00 0e 3d 25 94 d4 ba
       -0.03473703 0.027920732 0.034668513 -0.0016218467
000330 ca 9a c0 3b b3 4d 09 bc 93 36 b9 bc 73 55 84 bc
       0.0058778273 -0.008380341 -0.02260903 -0.016154027
000340 a5 6f 1b bb 5e 5b ef bc dc 75 ec bc 80 6f 80 3b
       -0.0023717668 -0.029218372 -0.028864793 0.003919542
000350 6a 5e be bc a0 24 9f bc b7 ed a1 b9 9e 2f 9a bc
       -0.02323838 -0.019426644 -0.00030885424 -0.018821534
000360 c2 68 07 3d 7c 3c 53 bc b5 ad a2 bc d7 e2 1b bc
       0.03305889 -0.012892839 -0.01985822 -0.009514532
000370 85 b3 ee bc 75 b8 96 3c 45 60 fb 3c b3 ba a8 bc
       -0.029138336 0.018398503 0.030685553 -0.020596838
000380 fc 85 59 bc 14 86 08 3d fc a4 d3 bc d7 7a 1e 3c
       -0.013276573 0.033330992 -0.025835507 0.009672842
000390 83 60 ee bc 72 33 02 bd 25 a9 62 38 45 fb a6 bc
       -0.029098755 -0.031787343 5.4040127e-05 -0.020383487
0003a0 d7 73 9e 3c ee fc 34 bc 25 7d b8 39 c7 be 98 bc
       0.019342346 -0.011046631 0.00035188455 -0.018645657
0003b0 a5 74 70 3c 7d 89 07 3d c1 ed af bb 03 94 b4 bc
       0.014676248 0.033090103 -0.0053689186 -0.022043234
0003c0 0b ad 0e bd 24 2e 0c 3d c5 9f 76 3c ea a7 71 3c
       -0.034832995 0.03422369 0.01505274 0.0147495065
0003d0 0a 3f c7 3b d5 ce 92 3c 4a ca 4f 3c 05 db 8e 3c
       0.006080513 0.01792089 0.012682507 0.017438421
0003e0 91 fa b6 3c 53 f2 a5 3b c1 00 fc 3c 45 ed b5 3c
       0.022336276 0.0050642877 0.030762078 0.022207865
0003f0 6e 4c 8f ba 1c ad 82 bc 6e 28 1b 3b a8 db e3 3c
       -0.0010932812 -0.015951686 0.002367522 0.027814701

bias f4 [32]
000000 b8 41 ec 3a ae 56 78 3c 27 a2 88 3c 37 48 92 3c
       0.0018024957 0.015157385 0.016678883 0.0178567
000010 d3 dd dc 3c 6e 81 81 3a 87 94 06 bd e0 67 08 3d
       0.026961243 0.0009880492 -0.03285649 0.033302188
000020 93 f4 98 b8 ae 88 98 3b 8a a3 9e 3c ea 44 4e bc
       -7.29348e-05 0.0046549654 0.01936509 -0.012589673
000030 2c e3 a2 bc b5 b2 c9 bc 37 d9 b5 bb f3 35 78 3c
       -0.019883715 -0.024621347 -0.0055495757 0.015149581
000040 ee 16 42 bb 23 ad 91 3c ca b7 3c 3b f7 16 cc 3b
       -0.0029615718 0.017782753 0.002879607 0.0062283236
000050 01 77 b9 bc b7 12 23 3b 3c 7b 68 bc 0a 6b 44 3c
       -0.022639753 0.002488298 -0.014189538 0.011988411
000060 bf 3e 10 3d 38 08 e3 bc 9a 72 0b bd 1e 17 e9 bc
       0.03521609 -0.02771388 -0.03404484 -0.028453406
000070 25 91 3f bc 0e 7e c3 bc 9c fc a2 3b 80 8f 13 3b
       -0.01169232 -0.023863818 0.004973961 0.0022515953

weight f4 [10, 32]
000000 9c a4 a7 bc ac 29 ad bd b3 77 20 3e 43 51 26 3d
       -0.020464234 -0.08455214 0.15670662 0.04060484
000010 2a 11 32 3d 10 01 a8 3d 1e 22 26 3e 7a c2 a8 bd
       0.0434734 0.08203328 0.16223952 -0.082402185
000020 85 4e 1d 3e 85 df e6 3d 5d a1 26 bd 50 e4 38 3a
       0.15361984 0.11273102 -0.04068123 0.0007053064
000030 3c cf 04 be e8 83 d5 3d 79 17 31 3e a9 bd 70 3d
       -0.12969679 0.1042555 0.1729411 0.058774624
000040 28 6f 2f be e2 02 ce bd f1 42 f2 3d 90 00 9e bd
       -0.17132246 -0.100591436 0.11829174 -0.07714951
000050 e3 52 a4 bc 7e 2b da 3c 09 bd 32 3e cd 07 26 be
       -0.020059055 0.026632067 0.17454924 -0.16213913
000060 c9 8e de bd 7b bd 0c be c7 0a 9b bd 38 88 7e bd
       -0.10867078 -0.13744156 -0.07570415 -0.062141627
000070 24 7a e1 bc f5 bf c6 bd 75 ba ce bd 64 d4 9f 3d
       -0.027524062 -0.09704582 -0.100941576 0.07804182
000080 58 bf a3 3d 29 24 22 3e 93 aa bc 3d 7e ef 2c bd
       0.0799548 0.15834107 0.09212222 -0.042220585
000090 28 15 01 3d 43 71 e7 bd 9f 54 24 be b9 ae f8 bc
       0.031514317 -0.113009 -0.16047905 -0.030356752
0000a0 7d 06 08 3d 9a 22 d9 3d 31 36 07 3e 84 71 f8 bc
       0.033209313 0.10602303 0.13204266 -0.030327566
0000b0 f3 ca 34 be 21 20 ca 3b 89 b6 2e be 05 5a ec bd
       -0.17655544 0.006168381 -0.17061819 -0.11540607
0000c0 8b 3d e5 3d 43 a9 1c be c0 92 0b 3e 1e 18 89 3d
       0.11193379 -0.15298943 0.136302 0.06694053
0000d0 23 1e 90 3d 56 7c ea 3d 1a 0e ef 3c 19 86 8d 3d
       0.07036998 0.114494964 0.029181529 0.06910343
0000e0 b0 c7 2d bd a4 c9 0b 3e fa a7 32 3e 67 04 0a be
       -0.042426765 0.13651139 0.1744689 -0.13478242
0000f0 42 92 00 3e c9 46 28 be 6b b9 b5 bd b8 9b a2 bd
       0.12555793 -0.16433252 -0.08873256 -0.07939857
000100 2a 5a 1a be 78 89 5a 3d 55 7f a7 bd 75 9a 1e be
       -0.15073457 0.053353757 -0.081785835 -0.15488608
000110 f1 69 1a 3d 69 ba 31 3e a7 9c 34 3e 31 46 8b 3d
       0.03769869 0.17356266 0.17637883 0.06800497
000120 1a e4 e0 3d 22 ba 9e 3d e1 32 b9 3d 35 d2 87 3c
       0.10981007 0.07750346 0.090429075 0.016579727
000130 35 9f 9e bd 76 8c 04 bc b9 54 82 bd 18 7b fe 3d
       -0.0774521 -0.008090129 -0.06363816 0.12425822
000140 7d bf 32 bd 73 91 e8 3d b4 d8 13 3e 0e a6 79 bd
       -0.04363965 0.11355867 0.14438134 -0.060949378
000150 d7 3e b6 3d 08 e4 3b 3d 53 d4 1b be d7 e5 c2 bd
       0.088987045 0.045871764 -0.15217714 -0.09516495
000160 ad bc a6 bb 9a 65 f2 3d 50 ae 6e 3d 62 2a 8b bd
       -0.00508841 0.11835785 0.058271706 -0.06795193
000170 41 9d 89 3c 47 a3 08 3e cc 7c 69 bd f5 cc e2 bd
       0.016798617 0.13343535 -0.05700378 -0.11074249
000180 cd 77 69 bd 27 99 0a 3e e2 68 2f 3d 3c 31 7c 3d
       -0.056999017 0.13534985 0.042824633 0.06157039
000190 7d 9f bf 3c 78 6c 13 3e d5 36 dd 3d 5a 2c 67 3d
       0.02339148 0.14396846 0.10801474 0.05643878
0001a0 8d 3c a1 3d ff 45 95 3b 02 57 01 3e 83 6c a1 bc
       0.07872877 0.0045554633 0.12630847 -0.019705063
0001b0 c4 60 11 3e 35 fc fe 3c 44 22 09 3e 76 3f 5f 3d
       0.1419707 0.031126121 0.13391978 0.05450388
0001c0 eb 4e fb bc 40 6a 81 3c 0a 7c e4 bd 72 39 f3 bd
       -0.03067728 0.015797734 -0.11156471 -0.11876191
0001d0 ce ca 18 be c1 17 20 3e c7 56 fc bd be 87 32 be
       -0.14921114 0.15634061 -0.12321239 -0.17434594
0001e0 34 2b eb 3d f8 3d 2f bd b3 7f d9 3d 82 5e ca bd
       0.1148285 -0.042783707 0.1062006 -0.09881307
0001f0 1e dc f7 bd 90 4d 17 3e 98 38 ae bd a4 42 e8 bd
       -0.12102531 0.14775681 -0.08506888 -0.11340836
000200 36 29 db 3b 56 4c fa bd 4d e2 07 be e0 0f 23 3e
       0.0066882623 -0.12221591 -0.1326992 0.15924025
000210 c3 da f4 3d 1e 4d 16 3e 7f 42 fb 3d 7f aa 01 be
       0.11955788 0.14677855 0.122685425 -0.12662695
000220 43 63 a2 bd 20 0e 24 be 36 2a f5 3d 24 f6 4e bd
       -0.07929089 -0.16021013 0.11970942 -0.050527707
000230 58 69 a9 3d 8f e4 6e 3d 72 ab 79 bd 3c 18 25 3d
       0.08272046 0.05832344 -0.06095452 0.040306315
000240 1c 64 a4 3d aa de 26 3e 9b f3 d7 3d 7e ef 9b 3c
       0.08026907 0.16295877 0.10544511 0.019035097
000250 a2 d9 2b 3e e5 83 18 be e0 18 71 bb ee 8d fa bd
       0.16782239 -0.14894064 -0.0036788508 -0.12234102
000260 8e d2 2e be 5a 76 6c 3c b8 79 30 be 53 07 22 bd
       -0.17072508 0.014432514 -0.17233932 -0.039557766
000270 3a a7 83 3c 01 24 16 be 41 50 42 bb 69 4f 07 3e
       0.01607095 -0.14662172 -0.0029649886 0.13213886
000280 ec 30 1c be f2 96 23 be c2 6b 84 bd 56 6c b0 bd
       -0.15253037 -0.1597555 -0.06465866 -0.086144134
000290 2d 67 22 be e9 75 0b 3e 66 5e a2 bd 9b a1 2a 3e
       -0.15859671 0.13619198 -0.07928161 0.1666321
0002a0 0e d5 08 be 06 19 f4 3d 31 f3 65 bd 20 08 60 bd
       -0.13362524 0.11918835 -0.05614013 -0.05469525
0002b0 84 0f b0 bc d7 87 0d 3e 1e 6e 3c 3d 37 e1 8d 3d
       -0.021491773 0.1382135 0.046003453 0.06927722
0002c0 1f 9a 08 bd 06 53 eb bd 5a e3 0d be 9c a2 e6 3d
       -0.033350106 -0.11490445 -0.13856259 0.11261484
0002d0 58 f8 23 3e ec 14 e8 3d 50 f9 19 be 83 37 b0 3c
       0.16012704 0.113321155 -0.15036511 0.021510845
0002e0 51 bf 93 3d a8 3c d0 3d ab 06 00 be 80 9e 81 bd
       0.07214225 0.10167819 -0.12502544 -0.063290596
0002f0 e9 99 b4 3d e7 89 f5 3d 29 c8 ae bd fc 7b fd 3d
       0.088184185 0.119891934 -0.08534271 0.12377164
000300 d7 d7 04 be 31 03 20 be dd 84 b6 3c 75 1f f6 bd
       -0.12972961 -0.15626217 0.022280151 -0.12017719
000310 9f 86 fb bd 7b 3f 21 3c 5d eb b6 3d 4e 22 6e bd
       -0.12281536 0.009841795 0.08931611 -0.058138184
000320 1a 4b 47 bd 08 c6 8b bd a9 b7 2a be 70 c7 f8 3d
       -0.048655607 -0.06824881 -0.16671623 0.12147415
000330 ff 7a 1c 3e 45 40 26 3e 54 61 e5 bb 57 4f bd 3d
       0.15281294 0.16235454 -0.007000128 0.092436485
000340 46 e8 20 be ff 0a d8 bd 8e 38 2a be 07 80 c0 3d
       -0.15713605 -0.10548972 -0.16623136 0.09399419
000350 e3 2b 1b 3d 8b ef f4 3d 97 2b 1d bd 3c e7 05 3d
       0.03788365 0.11959752 -0.03837165 0.032691225
000360 56 5f 96 bd 0f f8 92 bd 9f b7 f1 3b 48 65 c2 3d
       -0.07342403 -0.0717622 0.0073766257 0.09491974
000370 5c ad cf 3d e3 32 11 3e 15 64 9b 3d 0d 3e bd 3c
       0.101404876 0.14179568 0.075874485 0.023100877
000380 c0 88 17 3e 26 7b 24 3e 99 4f 67 3d 0e 7d 2f 3e
       0.1479826 0.16062602 0.056472395 0.17137548
000390 7d a7 08 3c a9 50 b8 bc d3 57 27 3e 61 b3 10 bd
       0.008340714 -0.0224994 0.16342096 -0.03532732
0003a0 58 0e e7 3d 0a bf 19 3e bb c2 89 3d 83 ae c8 3d
       0.11282033 0.15014282 0.06726595 0.097989105
0003b0 62 97 05 be df a0 20 3e 1f ff e3 bd d4 93 ea 3d
       -0.13046029 0.15686367 -0.11132645 0.11453977
0003c0 48 f2 7f 3b 5a c7 fa 3d c0 53 67 3d 93 01 26 3e
       0.0039054323 0.122450545 0.056476355 0.16211538
0003d0 ec db 1e 3d 38 45 07 be f3 40 21 3e 75 cb 22 3c
       0.038783953 -0.13209999 0.15747432 0.009936203
0003e0 4c 5b fe 3c 4d 9e 26 3e d6 ec df bc 1e c0 f3 bd
       0.031049393 0.16271324 -0.027334612 -0.11901878
0003f0 a7 de a8 3c 0b 6d 47 3d 01 6a 17 be 8d fb 33 be
       0.020613981 0.048687976 -0.14786531 -0.17576428

bias f4 [10]
000000 7f 91 1b 3e e8 36 22 be 9d ac cc 3b cf b1 22 be
       0.15192221 -0.15841258 0.006246163 -0.15888141
000010 32 94 17 3e 45 89 06 3e eb 28 10 3d a5 49 02 3e
       0.14802626 0.13138302 0.035195272 0.12723406
000020 67 33 eb 3d 86 5c 2a 3e
       0.114844136 0.16636857
